Week2/seq2seq.pt (torch, 252481 bytes, 12 tensors)

encoder.weight_ih_l0 f4 [96, 64]
0.11484599 0.0028253947 0.16233851 0.38960126 0.2521801 0.17071983 0.47852057 -0.45664397
-0.1733002 0.11784114 -0.2843289 0.19049853 0.06510379 -0.2876603 -0.29573742 -0.077885404
0.028890781 -0.055576958 -0.21065456 0.2406819 -0.18023174 -0.0035420347 -0.49567586 0.18584001
-0.3386335 0.051888574 0.0598399 -0.106631525 0.040631916 0.19044654 -0.030425755 -0.132198
-0.19269578 0.051446076 0.35036013 -0.10776697 0.103373595 0.55103683 -0.33693388 0.026892208
-0.014197633 0.3680344 0.12223215 -0.20543106 -0.23415236 0.13568927 0.0621854 0.022851426
0.20868832 -0.10814603 0.26202744 -0.19329642 -0.26720625 0.3447028 0.18293315 0.11367259
0.2500054 -0.017930202 -0.044466358 -0.18446006 -0.16904044 0.019075781 0.19480765 -0.10122309
-0.102449276 0.010228386 -0.6589938 0.13763857 -0.15180227 0.3191913 0.15868501 0.21702698
0.12180811 0.3285859 0.092278175 -0.0043898206 0.11260217 -0.041689355 0.15603372 0.29745522
-0.22762662 -0.09201119 -0.40101045 -0.10192093 -0.22428864 -0.13489607 -0.055528622 0.13594145
-0.2788133 0.12433672 -0.09271857 -0.008591217 -0.42557114 -0.06228497 -0.16244353 -0.08880127
-0.26869947 0.11926037 -0.14177781 0.120296195 -0.059041098 0.22281916 -0.2561814 -0.058399674
0.216245 0.126954 0.0050138216 -0.10895705 -0.31152934 0.2958099 0.17249088 0.02034461
0.23966146 0.018114436 -0.24737771 0.030128688 -0.03269639 -0.3494093 0.4469866 -0.05725966
-0.027260441 -0.011036254 0.0066539557 -0.05350306 -0.08679872 -0.30589893 -0.23592776 0.108893715
-0.26946834 0.1322517 -0.002701173 0.16136082 -0.44293186 0.43351382 0.1300226 -0.26282576
0.17406563 0.4328275 0.2297351 -0.32719332 0.19403331 -0.00021269952 0.31858906 0.2439847
0.46933293 -0.24892731 -0.047542922 0.30806226 -0.061188057 0.30219293 -0.41218576 0.083231956
0.13735497 0.16948923 0.22550584 0.022783555 -0.20935242 0.33420053 0.36854208 -0.21529178
-0.06289994 0.13229874 -0.16714157 0.06063838 -0.24126521 -0.03104456 -0.23682016 -0.051856752
0.07474816 -0.13207042 -0.12618963 0.3151394 -0.16331553 0.58264875 0.41243756 -0.050643507
-0.07221054 0.15870526 -0.14125766 -0.28194806 -0.07502202 -0.023432106 -0.40855488 0.3480884
-0.011942614 0.23284543 -0.27273467 -0.7056797 0.47887808 0.64131993 -0.016976126 0.7017613
-0.18883908 -0.16176896 -0.015481782 0.11147667 -0.13744962 -0.06291299 0.32285628 0.40814298
-0.13338004 -0.05411386 0.030048082 -0.41568825 -0.2866573 -0.402218 -0.31486192 -0.0062970547
0.28081277 -0.05841101 -0.32214686 0.1661612 -0.08490257 -0.038253397 -0.23186241 0.29541212
0.06858773 -0.10808104 -0.18719195 -0.18449357 0.09443232 0.2208208 -0.26016727 0.3872518
0.20985474 0.19677536 0.072589576 0.12795739 -0.23482901 0.39655682 -0.6495098 0.06343235
0.12203447 0.27075604 0.08483602 -0.1432617 -0.41379625 0.4194677 0.14406963 -0.29623753
0.2770992 -0.0878004 0.39252374 0.077669464 0.20631015 0.18505019 0.047340557 0.084886916
0.06959461 -0.32843453 -0.00280977 0.13009828 0.24026737 0.554162 0.02388048 0.04346709
00000000: 6034 eb3d 422a 393b 113c 263e d179 c73e
00000010: c01d 813e 2ed1 2e3e a600 f53e 3dcd e9be
00000020: 9c75 31be b256 f13d 8f93 91be 0c12 433e
00000030: 2355 853d 3648 93be e56a 97be 6282 9fbd
00000040: 5cac ec3c aaa4 63bd d4b5 57be 5175 763e
00000050: ab8e 38be 7b21 68bb 3ac9 fdbe d84c 3e3e
00000060: 5f61 adbe 1d89 543d af1a 753d a161 dabd
00000070: a76d 263d 6b04 433e 6f3f f9bc ea5e 07be
00000080: 0b52 45be 1fb9 523d 6762 b33e eeb4 dcbd
00000090: 89b5 d33d c010 0d3f 9982 acbe 0c4d dc3c
000000a0: 309d 68bc 016f bc3e d954 fa3d 855c 52be
000000b0: a3c5 6fbe 21f2 0a3e 1eb6 7e3d ea32 bb3c
000000c0: 64b2 553e aa7b ddbd 7628 863e 7fef 45be
000000d0: 42cf 88be e37c b03e d452 3b3e 2dcd e83d
000000e0: b500 803e 5ce2 92bc 5b22 36bd 19e3 3cbe
000000f0: f018 2dbe d044 9c3c a87b 473e 0d4e cfbd
00000100: edd0 d1bd f694 273c d1b3 28bf 20f1 0c3e
00000110: 0e72 1bbe 0b6d a33e 537e 223e 523c 5e3e
00000120: 8876 f93d 693c a83e 57fc bc3d 7cd8 8fbb
00000130: f79b e63d 75c2 2abd 4ec7 1f3e 0d4c 983e
00000140: f416 69be 5d70 bcbd 3e51 cdbe ecbb d0bd
00000150: ecab 65be 3222 0abe fb71 63bd 3c34 0b3e
00000160: 9ec0 8ebe 40a4 fe3d 3ce3 bdbd 2dc2 0cbc
00000170: 76e4 d9be 861e 7fbd 9957 26be 71dd b5bd
00000180: fa92 89be c83e f43d 342e 11be da5d f63d
00000190: 14d5 71bd b52a 643e 352a 83be 7f34 6fbd
000001a0: 546f 5d3e 3b00 023e fc4a a43b e024 dfbd
000001b0: c680 9fbe 6574 973e 73a1 303e bda9 a63c
000001c0: d069 753e ba64 943c 9550 7dbe 70d0 f63c
000001d0: a6ec 05bd c7e5 b2be 6ddb e43e 1b89 6abd
000001e0: 4a51 dfbc 68d1 34bc 6d09 da3b 0626 5bbd
000001f0: 87c3 b1bd c99e 9cbe 0c97 71be ab03 df3d
00000200: c1f7 89be fd6c 073e 2a06 31bb c53b 253e
00000210: f7c7 e2be 86f5 dd3e a524 053e 1991 86be
00000220: 433e 323e 919b dd3e ae3f 6b3e e285 a7be
00000230: abb0 463e 1808 5fb9 1b1e a33e 20d7 793e
00000240: 684c f03e cde6 7ebe 5ebc 42bd 56ba 9d3e
00000250: 54a0 7abd 08b9 9a3e 030a d3be 8475 aa3d
00000260: c8a6 0c3e 968e 2d3e 01eb 663e 94a4 ba3c
00000270: 7b60 56be 551c ab3e 8cb1 bc3e 7375 5cbe
00000280: afd1 80bd 5279 073e 2927 2bbe f35f 783d
00000290: 3a0e 77be 2951 febc fc80 72be bf67 54bd
000002a0: 9015 993d 783d 07be db37 01be f459 a13e
000002b0: 303c 27be 7828 153f 042b d33e 916f 4fbd
000002c0: 1fe3 93bd a283 223e d9a5 10be 7f5b 90be
000002d0: 25a5 99bd b0f4 bfbc 1b2e d1be a538 b23e
000002e0: f4aa 43bc 086f 6e3e e1a3 8bbe 6da7 34bf
000002f0: 822f f53e 8b2d 243f 8411 8bbc a1a6 333f
00000300: 085f 41be c3a6 25be 4da7 7dbc e14d e43d
00000310: 98bf 0cbe 87d8 80bd 6b4d a53e 1ef8 d03e
00000320: c794 08be 7fa6 5dbd 6527 f63c 17d5 d4be
00000330: bfc4 92be 85ef cdbe 9535 a1be 8657 cebb
00000340: b1c6 8f3e 6240 6fbd 6ff0 a4be 2926 2a3e
00000350: 66e1 adbd 98af 1cbd 576d 6dbe 4240 973e
00000360: b977 8c3d 9859 ddbd 3faf 3fbe e2eb 3cbe
00000370: bb65 c13d d91e 623e a534 85be de45 c63e
00000380: 29e4 563e 7b7f 493e d8a9 943d 4307 033e
00000390: 0477 70be 7f09 cb3e 4646 26bf d2e8 813d
000003a0: 35ed f93d 89a0 8a3e 82be ad3d 32b3 12be
000003b0: 1add d3be 78c4 d63e fd86 133e 72ac 97be
000003c0: f2df 8d3e b2d0 b3bd dff8 c83e 2b11 9f3d
000003d0: f842 533e cc7d 3d3e 2ce8 413d 31d9 ad3d
000003e0: 9e87 8e3d 9228 a8be 1e24 38bb 7c38 053e
000003f0: a608 763e 90dd 0d3f ffa0 c33c 8c0a 323d

encoder.weight_hh_l0 f4 [96, 32]
0.11699604 0.0072729313 0.12753084 0.32177538 -0.19557466 -0.22173965 0.254523 -0.3016469
0.20302463 -0.4831656 -0.6223016 0.3534335 0.45327708 -0.047554202 -0.44147292 0.14461175
-0.16941296 0.18155964 -0.17149976 -0.4596977 -0.14104877 0.1763934 0.115589865 -0.093305975
-0.26881558 -0.39906082 -0.36235452 0.31177446 -0.038397353 -0.3563331 0.16331273 -0.03607668
-0.017497819 -0.23623005 0.04751548 0.3034125 -0.11460079 -0.15379669 0.06462811 -0.48512626
0.35600024 -0.07245159 -0.39839718 0.0024823768 0.1434642 0.19239324 -0.06593561 0.1046374
-0.17437132 -0.66033363 0.23275433 -0.16150245 -0.12649049 0.20988558 0.010626378 -0.09850773
-0.2080817 -0.36025324 -0.52266973 0.15324478 0.5956801 -0.25840408 0.09662618 -0.008709593
-0.24915266 0.029178608 0.3569125 0.0125693735 0.25312814 -0.2557748 -0.18735449 0.18668498
-0.35017616 0.16692476 0.11329236 0.16622628 -0.13039485 -0.009199744 0.2760148 -0.08309616
0.47026765 0.0042665643 -0.26649252 0.19769569 -0.15309148 0.05463269 0.2826934 -0.2075383
0.06740734 -0.11416439 0.14952943 1.4261659 -0.74760455 -0.12206643 0.24838437 0.0043578492
0.19762251 -0.033951268 -0.26850146 0.19952337 0.1431841 -0.024641544 0.3007642 0.23060554
-0.11108359 0.098219074 0.14242736 -0.013118892 0.16614556 -0.019580152 -0.42353937 0.07906618
0.018310938 -0.264306 0.22498749 -0.1513264 -0.10960404 -0.16222961 -0.008340615 0.2085627
0.04264048 -0.15091959 -0.056474466 -0.039783873 0.19747242 -0.19218153 0.10675832 0.1741065
0.5435418 -0.8362742 0.7387595 -0.22819749 -0.17076021 0.17134857 0.25316283 -0.00472693
-0.16635512 -0.34982103 -0.22681649 0.077275395 0.04268103 -0.35534137 -0.0751134 0.047246695
0.14472602 0.53211546 -0.4945507 -0.38370946 0.31021687 0.33842602 -0.010454047 -0.0980777
0.46265313 -0.32768914 0.11166792 0.07651366 -0.32945204 -0.0947202 0.118534714 0.25476682
0.21930252 -0.11281254 -0.31141934 0.2784492 -0.01605145 0.05931392 0.4229378 0.2822915
0.25056085 -0.050289594 0.10538634 0.13367814 0.27527377 -0.28971064 -0.52283627 -0.13894616
0.2926219 0.018285558 0.02632919 -0.031244116 -0.1629452 0.2065586 0.049561977 0.26810902
0.08239791 -0.51775855 0.11392081 0.5203721 0.22859074 -0.14667611 0.22364697 -0.32378
0.054330513 -0.6185078 0.36158636 0.052075617 0.49656647 -0.19097964 -0.29327402 -0.6040839
-0.1573928 -0.1844477 -0.5312217 0.26678348 -0.28022733 -0.274462 -0.25703266 0.18343525
-0.67723733 0.8050713 -0.21764392 -0.29024094 -0.13461651 0.5012737 0.42207235 -0.5728211
-0.24168769 -0.22354954 -0.022192093 0.29361588 -0.28481868 -0.23165326 0.3046602 -0.35551465
-0.120357394 0.41832232 -0.0061927284 0.058446307 0.16288026 0.021208093 0.12991212 -0.10075363
0.19061893 0.08047452 -0.07964258 0.023137521 0.24015363 -0.25393516 -0.018459503 0.1414079
0.32996958 -0.04211229 -0.06598858 -0.2960923 0.010013713 0.13032384 -0.019166678 -0.07348753
-0.1263309 -0.35830596 0.02219265 0.18353403 0.17474158 -0.19912928 -0.045868993 0.07167444
00000000: 9f9b ef3d c551 ee3b 7297 023e bebf a43e
00000010: b944 48be b80f 63be d750 823e 7671 9abe
00000020: b0e5 4f3e 7b61 f7be 284f 1fbf 3cf5 b43e
00000030: ef13 e83e 32c8 42bd bd08 e2be 1a15 143e
00000040: 977a 2dbe c5ea 393e a29d 2fbe 7f5d ebbe
00000050: 176f 10be 79a0 343e 61ba ec3d 3417 bfbd
00000060: 32a2 89be b351 ccbe 8886 b9be e7a0 9f3e
00000070: 8b46 1dbd 4b71 b6be 743b 273e 24c5 13bd
00000080: 9657 8fbc 4ae6 71be 989f 423d e258 9b3e
00000090: d2b3 eabd e17c 1dbe be5b 843d 7862 f8be
000000a0: aa45 b63e 8061 94bd b7fa cbbe 5faf 223b
000000b0: 47e8 123e bc02 453e 4009 87bd 224c d63d
000000c0: 658e 32be a00b 29bf 2757 6e3e e660 25be
000000d0: b986 01be 3fec 563e 421a 2e3c 6cbe c9bd
000000e0: 5f13 55be 1d73 b8be afcd 05bf 33ec 1c3e
000000f0: 7e7e 183f 8a4d 84be f2e3 c53d aeb2 0ebc
00000100: e021 7fbe fa07 ef3c 3cbd b63e c6ef 4d3c
00000110: 039a 813e eaf4 82be dbd9 3fbe 592a 3f3e
00000120: 4a4a b3be 53ee 2a3e d305 e83d 3937 2a3e
00000130: 3a86 05be 86ba 16bc d051 8d3e 522e aabd
00000140: ecc6 f03e 89ce 8b3b b571 88be bd70 4a3e
00000150: 03c4 1cbe 87c6 5f3d 30bd 903e ec84 54be
00000160: dc0c 8a3d 05cf e9bd 3e1e 193e 9b8c b63f
00000170: 0363 3fbf f7fd f9bd 7958 7e3e 4acc 8e3b
00000180: 8e5d 4a3e 7c10 0bbd 0679 89be db4f 4c3e
00000190: da9e 123e 10dd c9bc c4fd 993e dc23 6c3e
000001a0: cb7f e3bd 1527 c93d 7ad8 113e 9ff0 56bc
000001b0: 1022 2a3e 8e66 a0bc 27da d8be 73ed a13d
000001c0: d200 963c 1e53 87be 1f63 663e 4ff5 1abe
000001d0: 1578 e0bd 851f 26be 13a7 08bc 7691 553e
000001e0: c9a7 2e3d aa8a 1abe c551 67bd 6af4 22bd
000001f0: 3636 4a3e 3ccb 44be 1ba4 da3d f948 323e
00000200: 8e25 0b3f 1116 56bf 581f 3d3f 9aac 69be
00000210: c4db 2ebe 0076 2f3e 8f9e 813e 5de4 9abb
00000220: ff58 2abe be1b b3be 9542 68be 9042 9e3d
00000230: 4ed2 2e3d 4eef b5be 0ed5 99bd c085 413d
00000240: 0f33 143e b838 083f c035 fdbe 9175 c4be
00000250: bfd4 9e3e 2d46 ad3e 7347 2bbc f6dc c8bd
00000260: dfe0 ec3e dfc6 a7be 27b2 e43d 32b3 9c3d
00000270: f0ad a8be aafc c1bd 54c2 f23d cc70 823e
00000280: d790 603e 430a e7bd 5b72 9fbe e590 8e3e
00000290: 557e 83bc 27f3 723d 4e8b d83e 8388 903e
000002a0: 8349 803e 76fc 4dbd cbd4 d73d ece2 083e
000002b0: aff0 8c3e f454 94be 99d8 05bf e747 0ebe
000002c0: 8ad2 953e 98cb 953c 50b0 d73c a9f3 ffbc
000002d0: 1bdb 26be 1984 533e 8001 4b3d 9645 893e
000002e0: 3cc0 a83d d38b 04bf 504f e93d 1b37 053f
000002f0: b113 6a3e 4332 16be b603 653e 7ec6 a5be
00000300: ac89 5e3d 8756 1ebf d921 b93e 3e4d 553d
00000310: f63d fe3e 2b90 43be 0328 96be 3ea5 1abf
00000320: 942b 21be dcdf 3cbe 25fe 07bf d897 883e
00000330: f579 8fbe 4986 8cbe c999 83be 73d6 3b3e
00000340: 6d5f 2dbf 2719 4e3f 0cde 5ebe 769a 94be
00000350: e9d8 09be 7953 003f de19 d83e 67a4 12bf
00000360: fa7c 77be 2cea 64be 31cc b5bc d254 963e
00000370: c1d3 91be 8336 6dbe 6cfc 9b3e 0406 b6be
00000380: f07d f6bd 582e d63e 5fec cabb 6565 6f3d
00000390: 15ca 263e 98bc ad3c af07 053e eb57 cebd
000003a0: 9c31 433e d3cf a43d a61b a3bd e68a bd3c
000003b0: d5ea 753e ca03 82be 6238 97bc 3ccd 103e
000003c0: c6f1 a83e f07d 2cbd 0525 87bd 6999 97be
000003d0: 8e10 243c 9d73 053e 7003 9dbc a180 96bd
000003e0: e35c 01be e173 b7be 5ccd b53c 58f0 3b3e
000003f0: 75ef 323e 8ce8 4bbe 20e1 3bbd 0cca 923d

encoder.bias_ih_l0 f4 [96]
0.22711141 0.2220805 0.285999 0.25818244 0.13802786 0.031158825 0.15238124 0.23010132
0.019862337 0.48441148 -0.17765395 0.39619097 0.1073736 0.16928753 0.061621804 0.54715747
0.53452224 0.047300074 0.11114811 0.1788963 -0.04549307 0.42092296 0.38672867 0.093524136
0.35113913 -0.108999394 0.11120667 -0.23818961 0.51812375 0.05743565 0.14304075 0.20670994
-0.0664803 0.0035660989 -0.30794057 -0.4205942 -0.24738666 -0.43471676 -0.03816085 0.006033056
-0.2537018 -0.2631377 -0.2905741 -0.051799804 -0.62280214 -0.51358855 -0.13183261 -0.2227992
0.016456505 0.18840182 -0.09728067 0.53590834 -0.13727869 -0.26653668 -0.19852932 -0.08007467
0.06756966 -0.14290984 -0.46750298 0.20493367 0.09793911 -0.03623021 -0.22412558 -0.35609856
0.218964 -0.08470895 -0.049572628 0.2329767 -0.21580562 -0.06925834 0.19864623 -0.20833693
0.13540472 -0.112073414 -0.12057409 0.20218009 0.17586407 -0.12119978 -0.28693447 0.20190951
-0.15632497 0.2171274 -0.10409769 -0.2909406 -0.24253136 -0.029258212 0.09643561 -0.24282621
-0.22298425 -0.23126364 -0.2503752 0.18097292 -0.07177345 -0.221801 0.1383002 0.09466892
00000000: e58f 683e 1269 633e 766e 923e 7d30 843e
00000010: 2d57 0d3e cb40 ff3c d409 1c3e ae9f 6b3e
00000020: 57b6 a23c c804 f83e ebea 35be 8bd9 ca3e
00000030: b1e6 db3d b659 2d3e 2567 7c3d 8312 0c3f
00000040: 73d6 083f b9bd 413d 9fa1 e33d 9730 373e
00000050: f156 3abd 3783 d73e 4d01 c63e 9589 bf3d
00000060: 82c8 b33e 133b dfbd 53c0 e33d fae7 73be
00000070: c2a3 043f a541 6b3d 4679 123e c5ab 533e
00000080: d326 88bd 36b5 693b 63aa 9dbe 1f58 d7be
00000090: ee52 7dbe 3293 debe 8d4e 1cbd f1b0 c53b
000000a0: 34e5 81be fcb9 86be 21c6 94be 082c 54bd
000000b0: f66f 1fbf 8a7a 03bf 21ff 06be 7925 64be
000000c0: cbcf 863c 68ec 403e 173b c7bd 4a31 093f
000000d0: c992 0cbe 7f77 88be 454b 4bbe 30fe a3bd
000000e0: f661 8a3d f556 12be 8d5c efbe 22da 513e
000000f0: 4d94 c83d 2166 14bd 2d81 65be 8d52 b6be
00000100: 1938 603e e37b adbd ab0c 4bbd 7291 6e3e
00000110: 26fc 5cbe 51d7 8dbd eb69 4b3e 4756 55be
00000120: 89a7 0a3e bf86 e5bd 8cef f6bd 4c08 4f3e
00000130: b615 343e 9737 f8bd 13e9 92be 5ec1 4e3e
00000140: a713 20be a556 5e3e 2b31 d5bd 2bf6 94be
00000150: 245a 78be ebae efbc 0880 c53d 6fa7 78be
00000160: fc55 64be 60d0 6cbe 2e31 80be f750 393e
00000170: f5fd 92bd cd1f 63be 919e 0d3e c7e1 c13d

encoder.bias_hh_l0 f4 [96]
0.37228158 0.23802777 0.29790434 0.21623883 0.09591202 -0.12601307 0.15522341 0.29591888
0.054659586 0.40403327 0.09854985 0.39726913 -0.06341579 0.25374696 0.23386098 0.30397433
0.47809198 0.05929279 0.10975989 0.102020815 0.11872755 0.38113353 0.4170439 0.3099876
0.36839172 -0.19253083 0.0828515 -0.28478405 0.577245 0.23952572 0.10613267 0.0011655078
-0.1423583 0.3275313 -0.3399701 -0.4877204 -0.28381783 -0.37662536 -0.049383994 0.25029534
-0.15632027 -0.2736011 -0.13948478 0.01424946 -0.5713776 -0.38357797 -0.2551205 -0.14567904
-0.11099953 0.17455168 0.09848748 0.61461663 -0.0516429 -0.34760138 0.018032376 0.1515701
0.10940102 -0.22229072 -0.6348516 0.08207138 0.38347274 -0.35065562 -0.17012283 -0.4219561
0.09133005 -0.25119874 0.13466907 0.37742585 -0.1748799 -0.045207717 0.08569197 -0.2857924
0.07296058 -0.225043 -0.19282058 0.059228323 0.117744975 0.05764071 -0.1322719 0.24087921
-0.22560623 -0.027268043 -0.38716385 -0.18447605 -0.05986282 0.08554307 0.21129571 -0.13645482
-0.317653 -0.08008395 -0.04572579 -0.0489206 -0.07896401 -0.019585615 0.10205094 -0.2119107
00000000: b19b be3e 8dbd 733e eb86 983e b66d 5d3e
00000010: 856d c43d 9209 01be e3f2 1e3e ae82 973e
00000020: bbe2 5f3d 73dd ce3e 81d4 c93d dc66 cb3e
00000030: 23e0 81bd 1feb 813e 4179 6f3e 86a2 9b3e
00000040: 79c8 f43e ffdc 723d cbc9 e03d 4af0 d03d
00000050: 6e27 f33d ef23 c33e c786 d53e b2b6 9e3e
00000060: d79d bc3e cd26 45be 0cae a93d 37cf 91be
00000070: 54c6 133f 3b46 753e 165c d93d f4c3 983a
00000080: 60c6 11be 2fb2 a73e 9010 aebe 7db6 f9be
00000090: 9250 91be 0ad5 c0be df46 4abd b626 803e
000000a0: 6c12 20be 7215 8cbe 19d5 0ebe 9176 693c
000000b0: cd45 12bf 5564 c4be 279f 82be e32c 15be
000000c0: b953 e3bd adbd 323e ceb3 c93d 8457 1d3f
000000d0: 8187 53bd cff8 b1be a2b8 933c 3135 1b3e
000000e0: a40d e03d 2ea0 63be a285 22bf 0a15 a83d
000000f0: 8a56 c43e 2289 b3be ae34 2ebe a10a d8be
00000100: 400b bb3d 1f9d 80be b0e6 093e f63d c13e
00000110: b713 33be ba2b 39bd 467f af3d 6253 92be
00000120: 5b6c 953d ac71 66be c272 45be 6699 723d
00000130: 4724 f13d aa18 6c3d 4972 07be 0aa9 763e
00000140: 5205 67be 3b61 dfbc 573a c6be 4ae7 3cbe
00000150: b732 75bd 3531 af3d e75d 583e d0ba 0bbe
00000160: 6aa3 a2be 0e03 a4bd f74a 3bbd f860 48bd
00000170: e2b7 a1bd 0372 a0bc 1500 d13d 1eff 58be

decoder.weight_ih_l0 f4 [96, 64]
-0.21486324 0.25665233 0.17398717 -0.52031696 0.44807354 0.39806393 0.2140693 -0.28870377
0.2561628 0.43243727 -0.676373 -0.6498075 -0.37865043 0.16147658 -0.59534824 -0.49753627
-0.17705657 -0.381878 0.17474379 0.25142163 0.124111064 0.64063865 -0.0787466 0.005330073
-0.17064781 -0.16353789 -0.023987822 -0.30989894 0.35073206 0.064368024 -0.3929335 0.069533415
0.20912383 -0.6103093 0.6289952 -0.57120126 -0.29430613 0.16776614 0.019855853 0.0021615145
0.006111321 0.15259568 0.28484422 0.3730512 -0.11127245 -0.0067813294 -0.036887586 -0.34105048
-0.3249987 -0.3596766 0.14635168 0.24656184 -0.44288304 0.037821926 0.27377945 0.2723318
-0.055861864 0.044840664 -0.44795197 -0.59554034 0.01849161 0.1777583 -0.1527376 0.26440606
0.017502557 0.026683278 -0.27006027 -0.36510825 0.33312055 -0.22161098 0.4862538 -0.47581533
-0.57746786 -0.13085407 -0.28497672 -0.060549043 0.21943943 -0.8621226 -0.45408595 -0.23121205
-0.42730746 0.5143452 -0.12300564 0.42490864 -0.090390235 0.47527975 0.34295517 -0.061661433
0.24650386 0.04801236 0.03349474 0.116901785 0.60806847 0.6615545 -0.51589555 0.04041205
0.14320399 0.19435304 -0.39520258 -0.06447752 0.047004044 0.10638807 -0.07508725 -0.37069327
-0.28648892 0.009876891 0.53385216 0.67514145 0.046053216 -0.4885475 -0.045677945 -0.16314481
-0.54882526 0.5981985 0.4190319 0.8071547 -0.21764961 -0.47526628 -0.11930301 0.2259856
0.08715886 0.10877228 -0.5235827 -0.21860097 -0.10035172 0.52317756 -0.08003559 0.41720974
0.4588856 0.27995348 -0.15396225 -0.07823917 -0.9706917 0.39181274 0.27305275 0.10128019
-0.07159048 0.19496453 0.12430402 -0.034611978 0.34525105 -0.046912357 0.21231428 0.092396945
-0.30747417 -0.3139872 0.24799852 -0.14029361 -0.23320322 -0.25011048 0.22705112 -0.33827397
0.2522499 0.42952952 0.067938454 -0.037452042 -0.51249903 -0.28789026 0.7443617 -0.0998823
-0.19180177 0.22476196 -0.035799876 -0.70067793 0.45303425 -0.15912928 0.13260812 -0.030895403
-0.07580001 -0.21524352 -0.011932585 0.051096465 0.12610802 -0.6711805 -0.040339384 -0.65529907
0.08093567 0.13686296 0.1739371 -0.2762409 0.090189986 -0.20306835 -0.31013325 -0.097827785
-0.13156287 0.27582094 0.2542862 -0.30027437 -0.25953037 -0.31987694 -0.032010466 -0.34193692
0.5330047 -0.16779521 0.054833625 0.30802354 -0.5941772 0.29317248 -0.5155512 -0.22446431
-0.46364403 0.083540745 0.19114952 0.38660187 0.2226555 0.44647807 -0.77729744 -0.52002454
-0.60037524 -0.35141495 0.11810801 0.501091 0.32358578 -0.0011107305 -0.08496762 0.084439255
0.4493221 0.27915323 0.6305149 -0.10360371 0.060037322 -0.10235718 0.23497134 -0.51945007
-0.13256603 -0.2577394 0.3539634 0.24381675 0.37384143 0.11915881 -0.019974016 0.7227124
-0.09982246 -0.22941208 -0.5466891 0.051451784 -0.14413142 -0.41199806 0.20848387 -0.04811547
-0.041314967 0.019794667 0.040607102 -0.059691813 -0.0073501836 -0.78066033 0.5657788 0.2671729
0.38172263 -0.007740521 -0.544609 0.1954625 -0.09642213 -0.08408029 -0.45872366 0.18903896
00000000: 1c05 5cbe ef67 833e b129 323e 7e33 05bf
00000010: e569 e53e 09cf cb3e fc34 5b3e fbd0 93be
00000020: c527 833e 6b68 dd3e c826 2dbf c959 26bf
00000030: 78de c1be 1e5a 253e be68 18bf 13bd febe
00000040: 514e 35be 8385 c3be 09f0 323e 56ba 803e
00000050: f12d fe3d e500 243f e645 a1bd e5a7 ae3b
00000060: 4dbe 2ebe 7a76 27be 1c82 c4bc 13ab 9ebe
00000070: 2793 b33e 62d3 833d 942e c9be 8967 8e3d
00000080: 8f24 563e 3b3d 1cbf d405 213f 3f3a 12bf
00000090: 4baf 96be e3ca 2b3e bea8 a23c 32a8 0d3b
000000a0: 7a41 c83b 0b42 1c3e 1ad7 913e 9100 bf3e
000000b0: cfe2 e3bd ea35 debb 7017 17bd 2b9e aebe
000000c0: 3b66 a6be 8827 b8be 37dd 153e b57a 7c3e
000000d0: 91c1 e2be 2aeb 1a3d d22c 8c3e 136f 8b3e
000000e0: 69cf 64bd d8aa 373d f659 e5be 5575 18bf
000000f0: b87b 973c 4606 363e 3f67 1cbe 3b60 873e
00000100: 8661 8f3c e496 da3c 5745 8abe 78ef babe
00000110: c78e aa3e fded 62be 42f6 f83e 119e f3be
00000120: efd4 13bf 9cfe 05be 78e8 91be 4602 78bd
00000130: bbb4 603e 11b4 5cbf f47d e8be dac2 6cbe
00000140: 0bc8 dabe 21ac 033f 62ea fbbd a08d d93e
00000150: 841e b9bd de57 f33e d297 af3e b390 7cbd
00000160: 826b 7c3e 9ca8 443d c831 093d 346a ef3d
00000170: 60aa 1b3f a35b 293f bb11 04bf 1b87 253d
00000180: 11a4 123e 7c04 473e fe57 cabe ca0c 84bd
00000190: 5087 403d fde1 d93d 58c7 99bd 82cb bdbe
000001a0: adae 92be afd2 213c 89aa 083f 12d6 2c3f
000001b0: 4ca2 3c3d e622 fabe cc18 3bbd 6f0f 27be
000001c0: d07f 0cbf 8923 193f 598b d63e b1a1 4e3f
000001d0: 8adf 5ebe 1a56 f3be 2355 f4bd c568 673e
000001e0: 5880 b23d 00c4 de3d 8409 06bf efd8 5fbe
000001f0: 3485 cdbd f7ee 053f b3e9 a3bd 849c d53e
00000200: 0ef3 ea3e 1056 8f3e 48a8 1dbe dc3b a0bd
00000210: 407f 78bf ae9b c83e 92cd 8b3e fd6b cf3d
00000220: 089e 92bd c8a4 473e 1b93 fe3d 4ac5 0dbd
00000230: bfc4 b03e 2c27 40bd ea68 593e 9c3a bd3d
00000240: 416d 9dbe eec2 a0be 53f3 7d3e 21a9 0fbe
00000250: d3cc 6ebe 7b0e 80be 1780 683e 3f32 adbe
00000260: e626 813e 4beb db3e 5123 8b3d 5067 19bd
00000270: 2333 03bf 5a66 93be 7d8e 3e3f 178f ccbd
00000280: af67 44be 0028 663e e4a2 12bd a15f 33bf
00000290: 1bf4 e73e c9f2 22be 6cca 073e 5b18 fdbc
000002a0: 093d 9bbd cc68 5cbe e480 43bc 874a 513d
000002b0: 7622 013e 7cd2 2bbf e93a 25bd aec1 27bf
000002c0: 9ac1 a53d ce25 0c3e 911c 323e 726f 8dbe
000002d0: 87b5 b83d 26f1 4fbe c9c9 9ebe ef59 c8bd
000002e0: 6bb8 06be 6738 8d3e cd31 823e 90bd 99be
000002f0: 2ae1 84be e9c6 a3be 681d 03bd 5b12 afbe
00000300: ff72 083f 82d2 2bbe 3999 603d 43b5 9d3e
00000310: ff1b 18bf b41a 963e 2afb 03bf f9d9 65be
00000320: c062 edbe 6917 ab3d b3bc 433e aef0 c53e
00000330: ceff 633e c698 e43e f7fc 46bf 5420 05bf
00000340: 31b2 19bf a9ec b3be 9de2 f13d 8047 003f
00000350: 09ad a53e ee95 91ba 8103 aebd 7dee ac3d
00000360: 8c0d e63e 2ced 8e3e 6d69 213f 2f2e d4bd
00000370: b2e9 753d a4a0 d1bd 549c 703e aefa 04bf
00000380: 64bf 07be 6bf6 83be b13a b53e 19ab 793e
00000390: 2568 bf3e 8909 f43d 8ca0 a3bc ae03 393f
000003a0: b86f ccbd 00eb 6abe d1f3 0bbf 1bbf 523d
000003b0: 3097 13be 69f1 d2be cc7c 553e ba14 45bd
000003c0: e239 29bd 6d28 a23c a253 263d 677f 74bd
000003d0: cfd9 f0bb 5bd9 47bf e1d6 103f e3ca 883e
000003e0: 2671 c33e 32a4 fdbb 7f6b 0bbf 5227 483e
000003f0: f778 c5bd 4932 acbd d4dd eabe 6e93 413e

decoder.weight_hh_l0 f4 [96, 32]
0.2881056 0.40570718 -0.081912346 -0.7370886 -0.18063442 0.5234738 0.880749 0.47725382
0.34449276 0.56615156 -0.0845436 0.3101351 -0.71063393 0.26650572 -0.8767484 -0.008847227
-0.2553017 -0.5014381 0.34279704 -0.47253457 -0.24401999 -0.74942315 -0.25831893 -0.49187526
0.3335209 0.30964756 -1.000838 -0.14790806 -0.47176334 -0.4654349 0.54632884 0.85959446
-0.38317648 -0.103432566 -0.09382401 0.44137245 0.45568082 -0.06293086 0.8278644 -0.298783
-0.13752528 0.48570046 0.25526014 0.15043156 0.14523031 -0.27029425 0.13355413 0.6831825
-0.12949982 -0.80570126 0.025543783 -0.02962265 0.2766264 -0.2103143 0.15889959 0.467148
0.71063995 -0.13833655 0.18930614 0.49978438 -0.0047032433 -0.18056422 0.19552 1.371842
-0.9714332 -0.09131638 -0.033512983 -0.0946905 -0.3464484 -0.4787186 0.08687305 -0.05843485
-0.78359115 -0.420896 0.15235168 0.23851267 0.52128136 0.008615401 -1.1311511 0.086273104
-0.05761755 0.2746219 0.27493426 0.1151008 1.1795818 -0.99295515 -0.069310755 -0.22368494
-0.1565452 0.3714653 -0.0029091185 -0.48877355 -0.02322226 -0.31254607 0.3018986 -0.05149511
0.06782099 -0.88235205 -0.022907829 0.36183357 -0.7610582 -0.31867138 0.19632822 -0.2048871
-0.7445061 -0.4129361 0.2188852 -0.36120588 -0.76475024 -0.100088224 -1.5265173 -0.029325558
0.25155377 0.0945301 -0.66866136 -0.6059553 -1.0921596 -0.14784606 -0.17197184 0.8246401
0.31932968 -0.88727504 -0.7428328 -0.76098084 0.34866995 0.07452865 -0.0804316 1.7596686
-0.14644718 0.28049618 -0.05816809 0.4353064 0.39286193 0.042853743 -0.14219347 -0.25341058
-0.5430838 0.73670393 0.0016820233 0.5533129 0.4582718 0.073597096 -0.5090165 0.18237226
-0.24667604 0.22368066 -0.42934895 -0.5665373 0.054486528 0.078143865 0.26092097 0.25594258
0.15771803 0.9890565 0.24296296 0.6821604 0.42083022 -0.07240551 0.25267673 0.40722847
0.28318828 -0.118789665 0.005580866 0.07449729 0.30142942 0.44624338 -0.4835902 0.07767409
0.03970248 0.2243653 0.12551698 0.012671014 -0.17829457 0.16097032 0.14040099 0.32513958
-0.22645406 0.11853132 0.087424845 -0.030410124 -0.50386214 -0.06305386 -0.033912893 0.24047363
0.23047213 0.088529706 -0.2819902 0.10208501 0.042363178 -0.06588456 -0.5531377 0.35314155
-1.101567 0.038615625 -0.4471562 -0.4061816 -0.5395174 0.30962214 0.19019859 0.0415379
-0.5296913 0.0051861173 -0.8579847 0.0840583 0.1659787 0.30421206 0.99940115 -0.24071142
0.055911466 0.40553626 0.46270627 -0.3466265 -0.3692711 0.06458051 -0.0019666443 0.20170458
-0.15081483 0.4099258 -0.17171869 -0.6043059 -0.26780552 -0.021967676 0.42472187 1.2697055
0.17083089 -0.46360952 -0.44491023 0.060892783 0.13950257 0.2887843 0.5938068 -0.5515014
0.39437574 -0.3451595 0.29710323 0.55119693 -0.23284142 0.14232747 0.4674038 0.062289055
-1.0141863 -0.17962752 -0.7520558 -0.31489578 0.17911507 0.84178686 0.34565797 0.0019365496
0.3064776 0.61979324 -0.22259709 0.5002248 -0.50088316 -0.20445935 -0.04586027 0.6717097
00000000: 9482 933e dab8 cf3e a9c1 a7bd d7b1 3cbf
00000010: 3bf8 38be 6102 063f c478 613f 9d5a f43e
00000020: 5b61 b03e 4fef 103f 3225 adbd 07ca 9e3e
00000030: 1bec 35bf 7073 883e 9572 60bf f6f3 10bc
00000040: e8b6 82be 3f5e 00bf 1883 af3e 0df0 f1be
00000050: 60e0 79be 32da 3fbf 6142 84be 13d7 fbbe
00000060: 40c3 aa3e 208a 9e3e 761b 80bf 3675 17be
00000070: f78a f1be 7c4d eebe 35dc 0b3f 620e 5c3f
00000080: b52f c4be 74d4 d3bd cd26 c0bd 92fb e13e
00000090: ff4e e93e e5e1 80bd ecee 533f 16fa 98be
000000a0: 6dd3 0cbe bbad f83e 75b1 823e bb0a 1a3e
000000b0: 41b7 143e 0264 8abe 6ac2 083e 0ce5 2e3f
000000c0: 9a9b 04be 7042 4ebf 3241 d13c 33ab f2bc
000000d0: faa1 8d3e a25c 57be 93b6 223e 062e ef3e
000000e0: 80ec 353f 19a8 0dbe 78d9 413e bde3 ff3e
000000f0: aa1d 9abb d4e5 38be 6536 483e 8598 af3f
00000100: d9af 78bf 1504 bbbd e944 09bd 18ed c1bd
00000110: af61 b1be 9b1a f5be 7fea b13d 6259 6fbd
00000120: 6e99 48bf ae7f d7be 1402 1c3e aa3c 743e
00000130: b272 053f 9c27 0d3c 8fc9 90bf f4af b03d
00000140: 6100 6cbd 3e9b 8c3e 2fc4 8c3e f8b9 eb3d
00000150: 89fc 963f 4f32 7ebf ccf2 8dbd aa0d 65be
00000160: 634d 20be b330 be3e e9a6 3ebb 8740 fabe
00000170: 9c3c bebc 0a06 a0be 7492 9a3e 89ec 52bd
00000180: bbe5 8a3d d3e1 61bf 33a9 bbbc 4042 b93e
00000190: b6d4 42bf e528 a3be 440a 493e edcd 51be
000001a0: f497 3ebf 5c6c d3be 7123 603e faef b8be
000001b0: acc6 43bf 0efb ccbd eb64 c3bf 273c f0bc
000001c0: a8cb 803e ff98 c13d 642d 2bbf e31f 1bbf
000001d0: e3cb 8bbf f564 17be 6319 30be 9d1b 533f
000001e0: 2e7f a33e 7524 63bf 4a2a 3ebf a4cf 42bf
000001f0: de84 b23e 7aa2 983d 53b9 a4bd d23c e13f
00000200: 40f6 15be 329d 8f3e aa41 6ebd 7be0 de3e
00000210: 3325 c93e 6887 2f3d 2a9b 11be 08bf 81be
00000220: 8a07 0bbf a198 3c3f 5677 dc3a eaa5 0d3f
00000230: 9aa2 ea3e 13ba 963d e84e 02bf cbbf 3a3e
00000240: a598 7cbe 8b0c 653e a0d3 dbbe 9708 11bf
00000250: 442d 5f3d e409 a03d 6f97 853e e80a 833e
00000260: d680 213e cf32 7d3f 48cb 783e 10a2 2e3f
00000270: 0f77 d73e 5749 94bd d85e 813e 4080 d03e
00000280: 0efe 903e ff47 f3bd b2df b63b 0992 983d
00000290: f554 9a3e 037a e43e 2299 f7be 9813 9f3d
000002a0: 119f 223d 04c0 653e 8687 003e 169a 4f3c
000002b0: da92 36be 67d5 243e 47c5 0f3e b278 a63e
000002c0: 93e3 67be 8cc0 f23d cc0b b33d a71e f9bc
000002d0: 1cfd 00bf 6222 81bd 3fe8 0abd b83e 763e
000002e0: e300 6c3e 104f b53d 0561 90be f211 d13d
000002f0: 0385 2d3d 7cee 86bd 6f9a 0dbf f8ce b43e
00000300: 2600 8dbf 6b2b 1e3d a8f1 e4be 09f7 cfbe
00000310: d01d 0abf cb86 9e3e 6bc3 423e a523 2a3d
00000320: d999 07bf 4ef0 a93b e3a4 5bbf c226 ac3d
00000330: 52f6 293e afc1 9b3e c1d8 7f3f 0e7d 76be
00000340: 6c03 653d 73a2 cf3e d6e7 ec3e 0779 b1be
00000350: 1a11 bdbe c942 843d d1e2 00bb a58b 4e3e
00000360: 346f 1abe cbe1 d13e 06d7 2fbe cbb3 1abf
00000370: ce1d 89be 8ef5 b3bc 2575 d93e b685 a23f
00000380: 4bee 2e3e 3a5e edbe 46cb e3be b66a 793d
00000390: c3d9 0e3e 89db 933e b903 183f 322f 0dbf
000003a0: 9eeb c93e bfb8 b0be ea1d 983e 3e1b 0d3f
000003b0: fb6d 6ebe 4bbe 113e 8d4f ef3e cf22 7f3d
000003c0: dbd0 81bf 47f0 37be bb86 40bf 053a a1be
000003d0: f169 373e 587f 573f 15fa b03e d2d3 fd3a
000003e0: a2ea 9c3e c5aa 1e3f 7ef0 63be bc0e 003f
000003f0: e139 00bf cb5d 51be fad7 3bbd 2bf5 2b3f

decoder.bias_ih_l0 f4 [96]
0.067197666 0.26635838 0.11966688 0.019162575 0.3661633 0.017088829 0.24084838 0.12709938
-0.0316478 -0.13378504 0.17852953 0.044696502 0.012819352 0.021696009 -0.14270927 0.22413789
0.3000949 0.022843247 0.21954434 0.4227416 0.20799106 0.24418904 0.19143759 0.30608726
0.03089515 0.064305425 0.008542983 0.10317723 0.30329692 0.18961051 0.123326406 0.1591002
-0.70747334 -0.3022105 -0.5246148 -0.7657093 -0.5388316 -0.6175743 -0.7873479 -0.016823344
-0.2112091 -0.30088896 -0.36586368 -0.27976063 -0.37258634 -0.31149307 -0.03369371 -0.6152062
-0.52329695 -0.47583836 0.025329083 -0.17701031 -0.0469598 -0.27653956 0.5107154 -0.39820436
-0.13428508 -0.43938127 0.3021198 -0.60000294 -0.47874266 0.14779015 0.028645597 -0.6277575
0.04689871 0.022132106 -0.15445344 0.17526026 -0.18943341 0.05284826 -0.18657747 -0.014223616
0.07842405 -0.15952028 0.021615673 0.039793357 -0.043305825 0.047823146 0.016529495 -0.0852125
-0.20975053 0.03900173 -0.19683231 -0.0014542418 0.006498736 -0.12827027 0.3187931 -0.019663293
0.17640454 -0.06781038 0.023537572 -0.23744315 -0.11161932 -0.13837628 0.102280684 0.02323841
00000000: ee9e 893d 2060 883e e913 f53d d5fa 9c3c
00000010: c279 bb3e dffd 8b3c f5a0 763e 5726 023e
00000020: 20a1 01bd f2fe 08be 72d0 363e ae13 373d
00000030: 4208 523c d4bb b13c 6122 12be 6784 653e
00000040: 0aa6 993e c321 bb3c 3bd0 603e 9671 d83e
00000050: 9cfb 543e b10c 7a3e 3708 443e 78b7 9c3e
00000060: d317 fd3c 90b2 833d def7 0b3c 954e d33d
00000070: bc49 9b3e 4229 423e 8e92 fc3d 2aeb 223e
00000080: f91c 35bf 56bb 9abe 284d 06bf 8605 44bf
00000090: def0 09bf 5919 1ebf a28f 49bf 1cd1 89bc
000000a0: 3347 58be 1e0e 9abe 7c52 bbbe c93c 8fbe
000000b0: a3c3 bebe 057c 9fbe 6a02 0abd 277e 1dbf
000000c0: caf6 05bf 16a1 f3be f07e cf3c 3142 35be
000000d0: eb58 40bd 9896 8dbe 3fbe 023f 71e1 cbbe
000000e0: 0782 09be 95f6 e0be 72af 9a3e cb99 19bf
000000f0: c21d f5be 4d56 173e 2caa ea3c b7b4 20bf
00000100: dd18 403d 644e b53c 0b29 1ebe 6d77 333e
00000110: d5fa 41be 6b77 583d 2a0e 3fbe 2b0a 69bc
00000120: ca9c a03d 4959 23be 5a13 b13c 5cfe 223d
00000130: 7361 31bd 34e2 433d dd68 873c e483 aebd
00000140: d8c8 56be 47c0 1f3d 698e 49be 429c beba
00000150: 59f3 d43b 4859 03be d938 a33e ea14 a1bc
00000160: 64a3 343e 2be0 8abd ded1 c03c 4c24 73be
00000170: ac98 e4bd 83b2 0dbe 8978 d13d 7a5e be3c

decoder.bias_hh_l0 f4 [96]
0.28160527 0.48080224 0.18390316 -0.005712432 0.49993172 0.096397914 0.20529155 0.09852481
-0.12231981 -0.13634808 0.17448486 -0.11024317 -0.046668548 -0.034876086 -0.03945255 0.32048258
0.44493067 -0.0752497 0.436487 0.3817411 -0.031476934 0.22412077 0.37167203 0.12392788
0.08801791 0.17099002 -0.05369157 0.12160516 0.3144236 0.29445964 0.08554835 -0.020154156
-0.831338 -0.18546468 -0.62238204 -0.58986473 -0.47152266 -0.5169297 -0.60588855 -0.21551675
-0.10547027 -0.27983743 -0.2964266 -0.11243704 -0.16030617 -0.31046447 0.004635852 -0.47299626
-0.4978363 -0.58638567 -0.18665951 -0.13101469 -0.20018405 -0.03783055 0.5789885 -0.39087194
-0.10347603 -0.3321198 0.28125727 -0.44833073 -0.4130806 0.05616276 -0.11326614 -0.57399625
0.02792678 -0.34678638 -0.095652215 0.46359727 -0.18851107 -0.07296215 0.45480272 -0.46436295
0.0447065 0.11395327 -0.17415048 0.21025555 -0.13297531 -0.21480452 -0.07082183 -0.7214904
-0.4795599 0.15794282 -0.46386394 -0.27385563 -0.2028826 -0.22289334 0.3646848 -0.12706108
-0.18583219 0.19560379 0.038887393 -0.27543062 -0.51468825 -0.05490904 0.33608457 0.042662572
00000000: 912e 903e b62b f63e 1c51 3c3e 5a2f bbbb
00000010: 0df7 ff3e 456c c53d f337 523e 60c7 c93d
00000020: cf82 fabd d59e 0bbe 29ac 323e 2cc7 e1bd
00000030: 8527 3fbd 3ada 0ebd ff98 21bd 4b16 a43e
00000040: f4cd e33e 841c 9abd 397b df3e 9273 c33e
00000050: f5ed 00bd ea7f 653e cc4b be3e e6cd fd3d
00000060: bc42 b43d 0218 2f3e b1eb 5bbd 200c f93d
00000070: 21fc a03e 6ac3 963e f933 af3d 541a a5bc
00000080: 91d2 54bf 74ea 3dbe 6e54 1fbf 6001 17bf
00000090: 6b6b f1be 8155 04bf 831b 1bbf 6cb0 5cbe
000000a0: cc00 d8bd da46 8fbe 3ac5 97be 6445 e6bd
000000b0: 4d27 24be 33f5 9ebe 58e8 973b 912c f2be
000000c0: 66e4 febe 5f1d 16bf ac23 3fbe b728 06be
000000d0: 0cfd 4cbe 35f4 1abd 9738 143f 5e20 c8be
000000e0: 3eeb d3bd 9b0b aabe f400 903e 9b8b e5be
000000f0: 4d7f d3be ec0a 663d 14f8 e7bd 6bf1 12bf
00000100: b4c6 e43c fc8d b1be 4fe5 c3bd 9f5c ed3e
00000110: 0c09 41be 2e6d 95bd e7db e83e fbc0 edbe
00000120: 2a1e 373d 5560 e93d 8154 32be 3b4d 573e
00000130: ae2a 08be b7f5 5bbe 090b 91bd 98b3 38bf
00000140: e088 f5be c3bb 213e 937f edbe ce36 8cbe
00000150: 75c0 4fbe 273e 64be f7b7 ba3e 4d1c 02be
00000160: cb4a 3ebe 5c4c 483e 6348 1f3d 3e05 8dbe
00000170: 9cc2 03bf 4de8 60bd 4713 ac3e f3be 2e3d

embed_enc.weight f4 [199, 64]
-0.5517303 -1.7421159 0.033153947 2.750227 0.73027 -0.4672149 1.0777527 -0.16291349
-0.4277293 0.34374234 0.22478512 -1.9911652 1.135695 -0.90393317 0.12746747 -0.8155463
-0.04997431 0.3621654 -0.23762716 1.5296082 1.10643 0.7956796 0.5334195 2.430073
-1.1407456 -0.6117072 -0.69773626 1.523271 -1.6958404 0.9309735 -0.78097546 1.2211479
1.2914311 -1.4052541 -0.7791111 -0.49063784 -1.100555 -0.05950639 -0.12896617 0.95746887
1.5636045 1.2063876 -0.32928023 0.2189749 -0.7663706 0.40441263 0.5260153 -1.4881661
0.47011495 -1.0461909 0.43980396 1.2396889 -0.6742734 0.65615934 0.46305364 1.0983179
-0.31442717 0.59141046 0.9424653 0.5146551 -0.91555333 -0.19281594 -0.58011687 0.5811487
0.008913936 0.14349839 0.9496018 -0.38138968 0.8009503 0.25888747 -0.5681943 0.9851693
-1.2671868 -0.8584101 -1.103588 -0.108404055 0.9376464 0.04840353 -0.7248943 -0.92227834
-0.22142518 0.7443182 -0.030926432 0.39549512 -0.8195384 0.98783714 -0.45113352 2.8551908
-1.9151424 0.4982089 -0.8548602 -0.28094894 0.9738311 -0.21764554 -0.560887 -1.1898156
-0.49404535 -0.22259557 -1.1602972 -1.424543 -0.08878495 0.41767892 1.4045438 0.69653636
0.23978423 0.08963256 0.5992717 -0.6228417 0.41738704 0.5482764 -1.4383599 0.44257158
-3.2258685 1.934761 0.701405 0.81123126 3.0435321 -0.1503069 0.1620672 -1.5097398
-0.588141 -1.3685505 0.53611094 -0.92284524 -0.13194726 -1.2874256 2.192324 0.559242
0.38077587 -1.0314511 -0.16232824 -1.8497322 1.4590068 -0.84566444 0.9359736 1.7244273
0.35286042 -0.9917229 -0.82149804 -0.77201575 0.23721087 -1.4487553 -1.2737002 -0.86234814
-0.073032215 1.0206513 1.0577774 1.4885617 0.33188888 -0.3235482 0.8806756 0.03001893
-0.92034733 0.056373473 -1.3505828 0.9229636 1.7301759 -0.07497499 -1.5012017 1.5922335
0.5718284 0.58284914 -0.0475947 -0.0053005256 1.4746003 0.799678 -1.5570147 -0.45798942
0.3013906 -0.55107665 0.8041924 -0.016506504 -2.0094328 1.564867 0.24875468 -1.1165938
2.3035557 -1.4797494 -0.39607626 0.11209267 -2.4722822 -0.3393633 0.5747919 -1.0888587
0.2112085 -1.104423 -0.3335404 -0.43137768 0.7543893 -0.19127674 -0.91181815 -0.33601725
-1.014622 -2.480044 1.8541241 1.08506 0.6445387 0.5089758 0.028910313 1.4815952
0.8200752 -0.0073299627 -1.1170425 0.6177368 1.5947931 1.785692 0.9274642 -1.0596435
2.6252725 -0.66869974 1.3046734 -0.7192507 -0.176128 0.71877795 0.38999233 -0.36430666
0.06688362 -0.1395405 3.0445976 0.069081806 -0.63938254 0.20965981 0.8772038 -0.4980109
0.37899384 -0.017079202 2.4615607 -0.24366161 -0.3117128 1.0062064 0.08931361 -1.7102125
0.48026645 -0.7157497 -0.25823992 0.024026249 -1.6891832 -1.2301725 0.46918932 -0.098551914
1.3050843 1.160474 0.3540145 1.577735 2.0407152 -1.1746501 -0.93917704 -1.6062218
0.2645117 -0.49876973 0.7329989 0.0961339 0.89831245 2.8138716 0.3711154 2.3562691
00000000: 323e 0dbf a7fd debf 6fcc 073d b803 3040
00000010: faf2 3a3f cb36 efbe cdf3 893f cbd2 26be
00000020: 56ff dabe fffe af3e 122e 663e 80de febf
00000030: 745e 913f 2a68 67bf d586 023e a4c7 50bf
00000040: ddb1 4cbd be6d b93e 8954 73be 34ca c33f
00000050: 809f 8d3f a9b1 4b3f 2e8e 083f 5186 1b40
00000060: f403 92bf d898 1cbf d89e 32bf 8bfa c23f
00000070: 4c11 d9bf 4754 6e3f 02ee 47bf 934e 9c3f
00000080: 9d4d a53f 5edf b3bf d373 47bf e234 fbbe
00000090: fcde 8cbf f9bc 73bd b50f 04be ae1c 753f
000000a0: 3124 c83f e96a 9a3f 6b97 a8be f53a 603e
000000b0: dd30 44bf 2c0f cf3e f0a8 063f 3a7c bebf
000000c0: e8b2 f03e 95e9 85bf fc2d e13e 20ae 9e3f
000000d0: 2e9d 2cbf 0ffa 273f 5e15 ed3e ae95 8c3f
000000e0: 99fc a0be ad66 173f 6845 713f 70c0 033f
000000f0: b461 6abf 8b71 45be 8a82 14bf 29c6 143f
00000100: c20b 123c 3ef1 123e 1b19 733f 8245 c3be
00000110: 140b 4d3f e68c 843e 2f75 11bf 0e34 7c3f
00000120: 2d33 a2bf c4c0 5bbf 5f42 8dbf f202 debd
00000130: 9809 703f c842 463d ac92 39bf 6f1a 6cbf
00000140: 48bd 62be a38b 3e3f 6e59 fdbc 567e ca3e
00000150: 45cd 51bf e5e2 7c3f f9fa e6be 72bb 3640
00000160: 6323 f5bf 3d15 ff3e 1ed8 5abf 8ad8 8fbe
00000170: ff4c 793f 79de 5ebe 4a96 0fbf e14b 98bf
00000180: 83f3 fcbe 18f0 63be 9e84 94bf 6d57 b6bf
00000190: e2d4 b5bd 03da d53e 17c8 b33f 3550 323f
000001a0: ff89 753e 4791 b73d df69 193f 8e72 1fbf
000001b0: c1b3 d53e d85b 0c3f 2d1c b8bf be98 e23e
000001c0: a174 4ec0 40a6 f73f 478f 333f daac 4f3f
000001d0: 3bc9 4240 0dea 19be f2f4 253e 273f c1bf
000001e0: 6990 16bf aa2c afbf 913e 093f 963f 6cbf
000001f0: 2f1d 07be 5dca a4bf 094f 0c40 7c2a 0f3f
00000200: 0ef5 c23e 9706 84bf 6039 26be 06c4 ecbf
00000210: bcc0 ba3f 777d 58bf f79b 6f3f 09ba dc3f
00000220: 1faa b43e 8de1 7dbf b24d 52bf d3a2 45bf
00000230: 68e7 723e d070 b9bf 9c08 a3bf d9c2 5cbf
00000240: ea91 95bd b4a4 823f 4065 873f 3189 be3f
00000250: 57ed a93e 1ca8 a5be f573 613f 42ea f53c
00000260: e29b 6bbf dfe7 663d e6df acbf 5847 6c3f
00000270: 6776 dd3f 7d8c 99bd 6127 c0bf 4fce cb3f
00000280: 5963 123f 9a35 153f a9f2 42bd 08b0 adbb
00000290: b4bf bc3f b3b7 4c3f 424c c7bf 977d eabe
000002a0: de4f 9a3e 5c13 0dbf 8edf 4d3f a638 87bc
000002b0: 8c9a 00c0 904d c83f 8cb9 7e3e 8cec 8ebf
000002c0: 756d 1340 6e68 bdbf 82ca cabe d790 e53d
000002d0: df39 1ec0 07c1 adbe 9025 133f b95f 8bbf
000002e0: 0b47 583e bc5d 8dbf cfc5 aabe 89dd dcbe
000002f0: a81f 413f 0dde 43be ea6c 69bf 740a acbe
00000300: 22df 81bf 0ab9 1ec0 f053 ed3f 3fe3 8a3f
00000310: 7d00 253f 3d4c 023f 52d5 ec3c e9a4 bd3f
00000320: 73f0 513f 2f30 f0bb 40fb 8ebf 0024 1e3f
00000330: 2e22 cc3f 8e91 e43f 4b6e 6d3f 66a2 87bf
00000340: 7704 2840 e82f 2bbf 8aff a63f d020 38bf
00000350: e65a 34be d501 383f 13ad c73e 6786 babe
00000360: 48fa 883d b4e3 0ebe b0da 4240 c37a 8d3d
00000370: 93ae 23bf 10b1 563e 6e90 603f 49fb febe
00000380: 7b0b c23e afe9 8bbc 368a 1d40 6e82 79be
00000390: d298 9fbe 5fcb 803f 0eea b63d 3ee8 dabf
000003a0: 7ce5 f53e 5f3b 37bf 0638 84be b2d2 c43c
000003b0: 2837 d8bf 4b76 9dbf 9539 f03e 96d5 c9bd
000003c0: 010d a73f 698a 943f 6341 b53e 38f3 c93f
000003d0: 149b 0240 ef5a 96bf e86d 70bf ad98 cdbf
000003e0: 146e 873e bf5e ffbe d1a5 3b3f dae1 c43d
000003f0: cef7 653f 7916 3440 d602 be3e 1dcd 1640

embed_dec.weight f4 [317, 64]
0.08843138 -0.38135198 1.2561271 -1.5083966 0.23392525 -0.45689297 1.3041872 -0.42122963
-2.0692081 1.3548371 -0.4686003 0.37586385 0.2970054 1.0222937 -0.81157094 -1.2268947
0.577687 0.009508683 0.5226431 0.70458513 1.6397339 -0.6245792 -0.8040821 1.6901718
-2.44246 -0.5530238 0.90012413 -0.8366792 0.20364909 0.88681626 -0.50138324 -0.8392661
-0.040277474 0.35448462 0.8668289 -0.099852815 0.7747505 -1.0618107 0.4114394 0.70551836
-1.9491745 0.9008338 1.0837634 0.3489445 -0.9443571 -0.2649805 0.8927373 0.27326843
-1.9772717 0.18697476 0.4028039 0.74607164 -1.0703623 -1.1723307 -0.4660055 1.3761617
2.1491375 -0.48586327 -0.9194259 -0.2717541 1.2414914 -0.22606015 -0.7869105 1.5300193
0.6378293 1.0468327 1.9658562 0.7552644 -0.71471447 0.24554418 -0.7597565 -2.3719993
1.4110814 1.7121112 0.12564059 0.4655936 0.27282083 1.7506499 0.59663475 0.7088283
-0.6307919 -2.5107148 0.11640643 1.2208678 0.8545192 -2.2860532 0.44882706 -2.6564474
1.7914891 0.41656017 -0.5426139 -0.33423862 -0.28302658 0.6047204 0.849802 -1.3310518
1.1883683 -2.1276524 1.0401541 -2.7001271 0.5893735 -1.5915638 2.0023146 0.20907101
-1.2352397 0.22902712 0.32263282 -1.1662382 1.0477244 0.8848077 -1.9177171 -0.5025763
1.573862 -0.00064351596 -1.3654569 -1.79812 0.7283377 -1.0081223 -0.1100748 -0.09454235
-0.57618004 -0.49886617 -1.7987216 0.50323933 0.15341754 -0.26533315 0.9529498 0.11102933
-0.5189824 -1.4085284 2.428533 0.60862815 0.11654673 -2.260721 0.4707886 0.06004054
-1.5444146 2.699362 0.0017553405 0.8804933 0.0013597272 -1.1533544 -0.51765287 -0.18851885
0.2526185 0.6612111 1.1545591 -0.26824403 1.0047889 0.9734391 -1.1406404 -1.3362621
-1.5949104 -1.8051434 0.77004784 1.4265747 0.72988415 0.35926172 0.61287236 1.0241262
-0.07443438 -1.1187904 -0.7208938 -1.7095556 -0.84868765 0.82412153 -0.3461489 0.10148743
-0.32490537 -0.7861932 -1.1760273 2.259375 0.03341833 0.23617709 -0.9822939 0.44190615
0.42253956 0.6588498 -1.2091388 0.40704355 0.60056424 0.6237562 0.26555604 0.088308945
-1.2818916 -1.4320654 0.81626695 -0.22629228 -1.0449702 -0.064657524 -0.89826584 1.1493828
-2.4965913 2.5432484 -1.649478 0.9796903 -1.9883461 -0.4203817 -0.57467526 -1.4329802
-1.233528 1.3401221 1.1951147 -1.6024147 2.2139032 -1.3670793 -0.26863807 -0.90526974
-0.99302673 3.2388577 1.2600195 -0.75141495 1.1415545 0.16589189 -0.21079943 -1.4422346
0.14169465 -2.1746287 -0.0859356 -0.68273383 -0.29967833 -2.0539985 -1.9027883 1.729738
-0.6695867 1.0553666 -0.010615394 1.3068467 1.1298063 3.3090262 -1.9563047 -1.2965149
1.4170448 0.05723642 -0.20857422 0.86142176 -0.13000476 -1.0346119 -1.9879156 1.8065188
-0.9436015 0.55911106 -1.6642946 -0.48993725 1.3590493 0.1409145 -0.28835678 0.030502902
1.610014 -0.82163596 -0.103791356 0.5470844 0.3789945 0.31506222 -0.6447724 -0.612716
00000000: 831b b53d 9140 c3be c6c8 a03f 2413 c1bf
00000010: 1a8a 6f3e e0ed e9be 9bef a63f 69ab d7be
00000020: e86d 04c0 4d6b ad3f 61ec efbe 3a71 c03e
00000030: 1711 983e 85da 823f 1dc3 4fbf e30a 9dbf
00000040: 4ce3 133f 4fca 1b3c f0cb 053f b15f 343f
00000050: cde2 d13f 6ce4 1fbf 53d8 4dbf 8d57 d83f
00000060: 4451 1cc0 f892 0dbf 896e 663f 9c30 56bf
00000070: 6389 503e 6406 633f a75a 00bf 25da 56bf
00000080: fef9 24bd 027f b53e 80e8 5d3f a27f ccbd
00000090: 0c56 463f 6ae9 87bf 2fa8 d23e da9c 343f
000000a0: 8d7e f9bf 0b9d 663f c2b8 8a3f daa8 b23e
000000b0: 63c1 71bf 86ab 87be 6f8a 643f d7e9 8b3e
000000c0: 3d17 fdbf 5076 3f3e 503c ce3e 8dfe 3e3f
000000d0: a201 89bf ef0e 96bf 4698 eebe 1126 b03f
000000e0: 788b 0940 12c3 f8be 7f5f 6bbf 5a23 8bbe
000000f0: 31e9 9e3f 507c 67be f772 49bf acd7 c33f
00000100: c848 233f 9dfe 853f 2da1 fb3f 0259 413f
00000110: 87f7 36bf ef6f 7b3e 677f 42bf d6ce 17c0
00000120: 519e b43f 7626 db3f eda7 003e 4962 ee3e
00000130: 2caf 8b3e 4c15 e03f 0ebd 183f c575 353f
00000140: 947b 21bf 8daf 20c0 7f66 ee3d 6545 9c3f
00000150: c5c1 5a3f b24e 12c0 a9cc e53e 3c03 2ac0
00000160: 844f e53f 6047 d53e bfe8 0abf 5321 abbe
00000170: dce8 90be f5ce 1a3f a08c 593f e85f aabf
00000180: 741c 983f 752b 08c0 c523 853f e2ce 2cc0
00000190: 2fe1 163f 5db8 cbbf ec25 0040 b616 563e
000001a0: 561c 9ebf 1686 6a3e 2130 a53e 4b47 95bf
000001b0: d51b 863f c282 623f c177 f5bf d7a8 00bf
000001c0: 4f74 c93f a0b1 28ba 4bc7 aebf cc28 e6bf
000001d0: 5774 3a3f 270a 81bf e66e e1bd 6b9f c1bd
000001e0: 8980 13bf 636b ffbe 823c e6bf 4bd4 003f
000001f0: 7d19 1d3e bfd9 87be 85f4 733f 5863 e33d
00000200: 08dc 04bf a94a b4bf 166d 1b40 0ecf 1b3f
00000210: 0db0 ee3d a7af 10c0 340b f13e 12ed 753d
00000220: 61af c5bf 59c2 2c40 7413 e63a 0268 613f
00000230: e038 b23a 1ea1 93bf e684 04bf 160b 41be
00000240: 3657 813e 2145 293f 98c8 933f 4857 89be
00000250: ec9c 803f 4e33 793f 8100 92bf a30a abbf
00000260: 0626 ccbf f00e e7bf db21 453f 009a b63f
00000270: b0d9 3a3f 27f1 b73e 34e5 1c3f 9116 833f
00000280: 0d71 98bd 8634 8fbf 7f8c 38bf b8d2 dabf
00000290: 9843 59bf a1f9 523f 6e3a b1be a4d8 cf3d
000002a0: ff59 a6be f543 49bf 1088 96bf 9a99 1040
000002b0: a9e1 083d 68d8 713e 9d77 7bbf 8641 e23e
000002c0: 1b57 d83e 61aa 283f 0fc5 9abf 0368 d03e
000002d0: 94be 193f 7cae 1f3f f6f6 873e 52db b43d
000002e0: 0615 a4bf eb4d b7bf dff6 503f 2ab9 67be
000002f0: 95c1 85bf 2a6b 84bd c0f4 65bf fa1e 933f
00000300: 27c8 1fc0 95c4 2240 1822 d3bf fccc 7a3f
00000310: 2082 febf 453c d7be eb1d 13bf e56b b7bf
00000320: 3fe4 9dbf 1f89 ab3f 85f9 983f ed1b cdbf
00000330: 97b0 0d40 74fc aebf ee8a 89be c2bf 67bf
00000340: 0037 7ebf 7249 4f40 5248 a13f bb5c 40bf
00000350: 751e 923f 90df 293e cedb 57be 259b b8bf
00000360: 6718 113e 1e2d 0bc0 01ff afbd a5c7 2ebf
00000370: 706f 99be b674 03c0 918e f3bf 0e68 dd3f
00000380: 096a 2bbf 4116 873f 31ec 2dbc c146 a73f
00000390: 7e9d 903f 16c7 5340 3168 fabf 33f4 a5bf
000003a0: b961 b53f bd70 6a3d 7b94 55be 2386 5c3f
000003b0: f81f 05be 2a6e 84bf 0574 febf 023c e73f
000003c0: de8f 71bf e721 0f3f 9b07 d5bf 0ed9 fabe
000003d0: 54f5 ad3f e44b 103e 80a3 93be 39e1 f93c
000003e0: f014 ce3f bc56 52bf 9090 d4bd b90d 0c3f
000003f0: 910b c23e d64f a13e ce0f 25bf f5da 1cbf
